model.pth (torch, 5063 bytes, 6 tensors)

layers.0.weight f4 [30, 2]
0	0xbe9e450c	-0.30912054
1	0x3dd6582d	0.10466037
2	0xbeb5de33	-0.35521087
3	0x3e90c18f	0.28272673
4	0xbf1a9bcf	-0.60393995
5	0x3f064a4b	0.5245711
6	0xbf039278	-0.5139537
7	0xbf0feaff	-0.5621795
8	0xbeecadec	-0.46226442
9	0x3ec31ba3	0.38107023
10	0xbe8eebdc	-0.2791432
11	0x3eab774c	0.33489454
12	0xbf19a2ed	-0.6001423
13	0xbedba84d	-0.4290184
14	0xbe84ee93	-0.25963268
15	0xbe0e4ba4	-0.13896042
16	0xbf0842b3	-0.53226775
17	0x3eded9fc	0.43525684
18	0xbe36dc75	-0.17857535
19	0x3e8c1cff	0.27365872
20	0x3f00a19e	0.5024661
21	0x3ddc4a49	0.10756356
22	0x3e0bb9a6	0.13645038
23	0x3f3d6ed1	0.7399722
24	0xbea88c50	-0.3291955
25	0x3e876814	0.26446593
26	0xbea94241	-0.3305836
27	0x3f1155f8	0.567718
28	0x3f1e24b6	0.61774766
29	0xbf2dc4f1	-0.67878634
30	0x3f031825	0.51208717
31	0x3ec5d4b8	0.38638854
32	0x3e7a50a7	0.24444829
33	0x3ea2bdb4	0.31785357
34	0x3f23a306	0.6392063
35	0xbdf653e2	-0.12027718
36	0xbf194bbd	-0.5988119
37	0xbe4d9f7e	-0.20080373
38	0xbf02ab52	-0.51042664
39	0x3dc2d3fd	0.0951309
40	0xbcfb9690	-0.030711442
41	0xbedbf6e1	-0.4296179
42	0xbd99a4d4	-0.075021416
43	0x3f363fdc	0.7119119
44	0x3c9a4748	0.018832818
45	0xbd64dce5	-0.055874724
46	0xbe05f90d	-0.13083287
47	0x3e447813	0.1918643
48	0x3f1cc79b	0.61242074
49	0x3ef7d979	0.48408106
50	0x3e86d888	0.26337075
51	0x3e0ecca7	0.13945256
52	0x3e102f21	0.14080478
53	0x3ec01689	0.37517193
54	0xbda2edfc	-0.07955548
55	0xbf29f267	-0.663855
56	0xbee0e1d9	-0.43922308
57	0x3f1c6751	0.6109515
58	0x3d98a71c	0.074537486
59	0xbf17515f	-0.5910854

layers.0.bias f4 [30]
0	0x3e106fc0	0.14105129
1	0x3f17136b	0.59014004
2	0xbf2a786c	-0.6659
3	0xbef3bd1a	-0.4760521
4	0xbe84da5c	-0.25947845
5	0x3d5d0688	0.053961307
6	0xbe28e048	-0.16491807
7	0xbd9f23b0	-0.07770479
8	0xbf330c35	-0.699405
9	0x3eb23de5	0.34812847
10	0x3f1bd52f	0.6087217
11	0x3ed8f9ae	0.4237799
12	0xbef8d301	-0.48598483
13	0xbf0c1e97	-0.54734176
14	0x3ea17f9b	0.31542668
15	0xbcac8b51	-0.021062525
16	0x3e85337e	0.26015848
17	0xbf2ba94d	-0.6705521
18	0xbd29e98e	-0.0414825
19	0x3f04292e	0.51625335
20	0x3ebdb3f0	0.37051344
21	0x3d284bff	0.0410881
22	0x3e17d875	0.14828666
23	0xbd1a0184	-0.0375991
24	0xbebedef0	-0.37279463
25	0xbe88393f	-0.26606175
26	0xbec979b4	-0.39350665
27	0x3f1774c8	0.5916257
28	0x3ec8982c	0.39178598
29	0x3e849583	0.25895318

layers.2.weight f4 [20, 30]
0	0xbe34c710	-0.17654061
1	0xbc29a630	-0.010354564
2	0xbd6881a4	-0.05676426
3	0x3e0155cc	0.12630385
4	0xbe23d7f0	-0.16000342
5	0xbd55750a	-0.05211357
6	0x3e368a5e	0.1782622
7	0x3dfb83e8	0.122810185
8	0x3d5aebe4	0.05344762
9	0xbe117310	-0.14204049
10	0x3ea29998	0.31757808
11	0xbeb1309b	-0.34607396
12	0xbc8aa816	-0.016925853
13	0xbe504052	-0.20337036
14	0x3eaea468	0.34109807
15	0x3d178e88	0.037001163
16	0x3c3024d8	0.010750972
17	0x3e988239	0.29786852
18	0x3db91e28	0.09038955
19	0xbdc2e147	-0.095156245
20	0x3e636da8	0.222098
21	0xbe8ea820	-0.27862644
22	0x3dbe007a	0.09277435
23	0xbd428258	-0.047487587
24	0x3c981bca	0.018567938
25	0x3d4f3b3a	0.050593592
26	0xbe236d62	-0.15959695
27	0x3e4a46bd	0.19753547
28	0xbe2a6967	-0.1664177
29	0x3e9e8246	0.30958766
30	0xbd6c8a85	-0.05774929
31	0x3d7f37dc	0.06230913
32	0x3e37f950	0.17966199
33	0xbda0658a	-0.07831867
34	0x3e2f82f6	0.17139801
35	0xbdbdf94b	-0.092760645
36	0x3da4d188	0.080477774
37	0x3d927ae4	0.07152346
38	0x3d475911	0.048668925
39	0x3e11743e	0.14204499
40	0xbd996c37	-0.074913435
41	0x3d31cc43	0.04340769
42	0x3905fb99	0.00012777596
43	0xbe0f18a2	-0.1397424
44	0xbd359500	-0.04433155
45	0xbdfb96ea	-0.12284644
46	0x3da1bef8	0.078977525
47	0x3c8673e0	0.016412675
48	0x3c9281d5	0.017884174
49	0xbd6bf55b	-0.057607036
50	0x3a662400	0.0008779168
51	0xbd7998ec	-0.060936853
52	0x3d54c4b7	0.051945414
53	0x3e34d012	0.17657498
54	0x3cdd8720	0.027041972
55	0xbda59cc9	-0.08086545
56	0xbde54d99	-0.11196441
57	0x3c64a6d0	0.013955787
58	0xbe0fff57	-0.14062248
59	0xbe0c8686	-0.13723192
60	0xbdf070f0	-0.11740291
61	0xbd83f963	-0.06444051
62	0x3c466e61	0.012111277
63	0x3e00bd74	0.1257227
64	0x3d91d2b3	0.07120266
65	0x3e0f3123	0.13983588
66	0xbdeac740	-0.11463785
67	0x3c7c6e10	0.0154071
68	0xbe28fdf3	-0.16503124
69	0x3dd62924	0.10457066
70	0xbd57f223	-0.052721154
71	0x3e2d2125	0.16907175
72	0xbe04bb28	-0.1296202
73	0x3e167ce6	0.14696082
74	0x3ce4c3e0	0.027925432
75	0x3dbc13ef	0.091834895
76	0xbc401efb	-0.011726136
77	0x3dfe8532	0.12427749
78	0x3df9dc6f	0.122002475
79	0x3e0b21f4	0.13587171
80	0xbd136af4	-0.03599067
81	0xbe110230	-0.1416099
82	0xbbf061fc	-0.0073358994
83	0x3d153e11	0.036436144
84	0xbe1a97e2	-0.15097001
85	0xbde7910f	-0.113069646
86	0xbe306c58	-0.1722883
87	0xbdfe2f52	-0.124113694
88	0x3e1f118b	0.15534036
89	0xbcb48574	-0.022036292
90	0xbc36b560	-0.011151642
91	0x3bf03fc0	0.0073318183
92	0x3de926b4	0.11384335
93	0xbe251810	-0.1612246
94	0xbe1040d7	-0.14087234
95	0xbd78a11a	-0.060700513
96	0xbdd7316f	-0.105074756
97	0x3dc0dbb4	0.09416905
98	0x3e04199a	0.12900391
99	0xbe3563b6	-0.17713818
100	0xbe1eaa6d	-0.154947
101	0xbe360fa1	-0.177794
102	0x3d8d0f58	0.06887692
103	0x3e1678ec	0.14694566
104	0xbe10f457	-0.14155708
105	0xbdad1add	-0.084523894
106	0x3d6df914	0.058098868
107	0xbdf428b4	-0.11921826
108	0x3e1ed0b6	0.15509304
109	0x3d2e5d10	0.04256922
110	0xbd502e90	-0.050825655
111	0x3c424950	0.011858299
112	0x3d6925e0	0.056920886
113	0xbd84385d	-0.06456063
114	0xbe10dd2a	-0.14146867
115	0x3aa0da00	0.0012272
116	0x3b59f200	0.0033255816
117	0x3b7147c0	0.0036816448
118	0xbcda42a0	-0.026643097
119	0x3df01434	0.117226034
120	0xbd50afe8	-0.050949007
121	0xbc90c490	-0.017671853
122	0x3d99bf7c	0.07507226
123	0xbdeb5aa8	-0.11491901
124	0x3d483c7c	0.048885807
125	0xbd255b08	-0.040370017
126	0x3db35b0c	0.087576
127	0xbdcad57a	-0.09903999
128	0x3bdd1b40	0.006747633
129	0x3c925178	0.017861113
130	0xbe166c93	-0.14689855
131	0xbe07f18e	-0.1327574
132	0x3d8f6674	0.07001963
133	0xbd59a8b4	-0.053139403
134	0x3dde10a4	0.10843018
135	0xbe38afd2	-0.1803582
136	0xbdb8d5db	-0.09025165
137	0xbe19fd0f	-0.1503794
138	0x3d955dfc	0.07293317
139	0xbbad7180	-0.0052930713
140	0xbd0b7c34	-0.034053996
141	0xbcf8d538	-0.030375108
142	0xbe122248	-0.1427089
143	0x3d541440	0.051777124
144	0x3b951f00	0.0045508146
145	0xbe01054e	-0.1259968
146	0x3d8cb2d0	0.06870043
147	0xbb707d00	-0.00366956
148	0xbe34d063	-0.17657618
149	0x3dc92280	0.098210335
150	0x3e10b35d	0.14130922
151	0x3df71ceb	0.120660625
152	0xbc09931c	-0.00839689
153	0x3bf03380	0.007330358
154	0x3e6f644a	0.23378101
155	0x3e877af1	0.26460984
156	0xbe0d1d54	-0.13780719
157	0xbda8e269	-0.08246309
158	0x3e6ea6e4	0.23305851
159	0x3e4d180d	0.20028706
160	0x3b03a135	0.00200851
161	0x3df4d3b5	0.119544424
162	0x3e4585ad	0.19289275
163	0xbd25f597	-0.040517416
164	0xbe81e1ca	-0.25367576
165	0xbd46c1aa	-0.048524536
166	0x3d46f627	0.048574593
167	0xbe5ffe12	-0.21874264
168	0x3e2bad8e	0.16765425
169	0x3e8f353e	0.27970308
170	0xbe310e9b	-0.17290728
171	0x3e4dfe75	0.20116599
172	0xbdaf4161	-0.08557392
173	0x3e5be32c	0.21473378
174	0x3db7db1a	0.08977337
175	0x3dbbb070	0.09164512
176	0x3db5dd22	0.08880068
177	0xbe0a0c60	-0.13481283
178	0x3eac202f	0.33618304
179	0xbdcd419c	-0.100222796
180	0xbd885f12	-0.06658758
181	0x3dc10dc4	0.09426454
182	0x3d6aabfc	0.057292923
183	0xbd41c5a8	-0.04730764
184	0xbd4cf218	-0.050035566
185	0xbe255522	-0.16145757
186	0xbd4cfe08	-0.05004695
187	0xbd977a1e	-0.07396339
188	0xbdcbccde	-0.09951185
189	0xbe28dcb0	-0.16490436
190	0x3def1e07	0.11675649
191	0xbe2a3ba0	-0.16624308
192	0x3e39980a	0.18124405
193	0xbdc42015	-0.09576432
194	0xbd3581a0	-0.044313073
195	0x3e051642	0.12996772
196	0x3d3ec066	0.046570204
197	0xbd7b8e91	-0.06141526
198	0xbe16829c	-0.14698261
199	0xbd98e03a	-0.07464643
200	0x3e137e00	0.14403534
201	0xbd8d315a	-0.06894179
202	0x3e1d7532	0.15376738
203	0xbd00c9a4	-0.0314423
204	0xbcf65580	-0.030070066
205	0x3d927199	0.07150573
206	0xbcdbc310	-0.026826411
207	0xbc8a3c7f	-0.01687455
208	0x3e017c02	0.12644961
209	0x3d40a98e	0.0470367
210	0x3cd77b16	0.02630381
211	0x3e44c9a1	0.1921754
212	0x3e80f30b	0.25185427
213	0x3d3c7b54	0.046016052
214	0x3cb010fc	0.021492474
215	0x3e0b88cd	0.13626404
216	0xbc82da78	-0.015973315
217	0xbe122aaa	-0.14274088
218	0x3b01dbe2	0.0019814898
219	0x3e2e3e6f	0.17016004
220	0x3d649c23	0.055812966
221	0x3e77ff94	0.24218589
222	0xbda1ee43	-0.07906773
223	0x3e8435ea	0.25822383
224	0xbd9c0ab8	-0.07619232
225	0x3daaf766	0.08347969
226	0xbc93d906	-0.01804782
227	0xbdb4597c	-0.0880613
228	0x3da7a15f	0.08185076
229	0x3ce3a56a	0.027788837
230	0xbded25e6	-0.11579494
231	0x3da0ad2d	0.07845531
232	0x3e1692bd	0.14704414
233	0x3e0f5ccc	0.14000243
234	0x3e133391	0.1437514
235	0xbe1f5c7a	-0.15562621
236	0x3ddd8c84	0.10817817
237	0x3d3ab3c0	0.04558158
238	0x3d7d5006	0.061843894
239	0x3bbd1d40	0.005771309
240	0x3c8f0b20	0.01746136
241	0xbe35bfc4	-0.17748934
242	0xbe0bc58d	-0.13649578
243	0x3e187f86	0.14892396
244	0xbd78bfef	-0.060729917
245	0xbd49dd99	-0.049283598
246	0xbdeca5b8	-0.11555046
247	0xbddf95ce	-0.10917245
248	0x3df4f732	0.11961211
249	0x3c634cd0	0.013873294
250	0xbd79349a	-0.06084118
251	0x3accf3c0	0.0015636608
252	0xbdd4d1c6	-0.103915736
253	0xbe58c911	-0.21170451
254	0xbe399bc7	-0.1812583
255	0x3d43f6ea	0.047842897

layers.2.bias f4 [20]
0	0x3e1c2e57	0.15252052
1	0xbda50ecf	-0.08059465
2	0xbe4dbc82	-0.20091441
3	0xbe04497b	-0.12918656
4	0x3db1a99c	0.086749285
5	0xbc899e16	-0.016799014
6	0x3df03d49	0.11730439
7	0x3d808736	0.062757894
8	0xbd40057a	-0.046880223
9	0x3dd3f5fe	0.10349654
10	0x3d8a439f	0.06751179
11	0xbe045697	-0.12923656
12	0x3cd2f675	0.025752285
13	0xbbaace20	-0.0052125603
14	0xbdf5f626	-0.1200984
15	0x3d8dd8c8	0.06926113
16	0x3dae8075	0.08520595
17	0xbd9eb363	-0.07749059
18	0xbe0c8ba3	-0.13725142
19	0x3d9e4780	0.07728481

layers.4.weight f4 [2, 20]
0	0xbef44b36	-0.4771363
1	0x3d4a3fdc	0.049377307
2	0xbcd5ecfe	-0.026113983
3	0x3d190ae0	0.037363887
4	0x3d368598	0.044561
5	0x3ec1fffd	0.37890616
6	0xbe5d7f7a	-0.2163066
7	0x3e2e0d2d	0.16997214
8	0xbdd35088	-0.103180945
9	0x3e6a7c3a	0.22898951
10	0xbd9816eb	-0.07426246
11	0x3e477dda	0.19481602
12	0x3d50d7b8	0.050986975
13	0xbd22f2d4	-0.03978236
14	0xbdc242fe	-0.09485434
15	0x3e9850cb	0.2974914
16	0xbe11f759	-0.14254512
17	0xbdd232d7	-0.10263603
18	0x3cbbabde	0.022909101
19	0xbe1447f9	-0.1448058
20	0x3eeb35a1	0.45939353
21	0x3d6673bc	0.056262717
22	0xbe533354	-0.20625049
23	0xbe61ae66	-0.22039184
24	0x3dc7c6c0	0.097547054
25	0xbed0fabb	-0.40816292
26	0xbd930d08	-0.0718022
27	0xbec858a7	-0.39130136
28	0x3d60ee1a	0.05491457
29	0xbe287e5f	-0.16454457
30	0x3db8e7d3	0.09028592
31	0xbe5bc1ae	-0.21460602
32	0x3e72f2e8	0.23725474
33	0xbe4316cd	-0.19051667
34	0x3cf812e0	0.030282438
35	0xbe9a37ce	-0.301207
36	0xbe239c7f	-0.15977667
37	0xbbceeee7	-0.0063151005
38	0xbeafec93	-0.3436018
39	0x3e3e9316	0.18610796

layers.4.bias f4 [2]
0	0xbe04cdea	-0.12969175
1	0x3e0f3288	0.1398412
